…
      "outputs": [
        {
          "output_type": "stream",
          "name": "stdout",
          "text": [
            "Model: \"mobilenet_1.00_224\"\n",
            "_________________________________________________________________\n",
            " Layer (type)                Output Shape              Param #   \n",
            "=================================================================\n",
            " input_1 (InputLayer)        [(None, 96, 96, 3)]       0         \n",
            "                                                                 \n",
            " conv1 (Conv2D)              (None, 48, 48, 32)        864       \n",
            "                                                                 \n",
            " conv1_bn (BatchNormalizati  (None, 48, 48, 32)        128       \n",
            " on)                                                             \n",
            "                                                                 \n",
            " conv1_relu (ReLU)           (None, 48, 48, 32)        0         \n",
            "                                                                 \n",
            " conv_dw_1 (DepthwiseConv2D  (None, 48, 48, 32)        288       \n",
            " )                                                               \n",
            "                                                                 \n",
            " conv_dw_1_bn (BatchNormali  (None, 48, 48, 32)        128       \n",
            " zation)                                                         \n",
            "                                                                 \n",
            " conv_dw_1_relu (ReLU)       (None, 48, 48, 32)        0         \n",
            "                                                                 \n",
            " conv_pw_1 (Conv2D)          (None, 48, 48, 64)        2048      \n",
            "                                                                 \n",
            " conv_pw_1_bn (BatchNormali  (None, 48, 48, 64)        256       \n",
            " zation)                                                         \n",
            "                                                                 \n",
            " conv_pw_1_relu (ReLU)       (None, 48, 48, 64)        0         \n",
            "                                                                 \n",
            " conv_pad_2 (ZeroPadding2D)  (None, 49, 49, 64)        0         \n",
            "                                                                 \n",
            " conv_dw_2 (DepthwiseConv2D  (None, 24, 24, 64)        576       \n",
            " )                                                               \n",
            "                                                                 \n",
            " conv_dw_2_bn (BatchNormali  (None, 24, 24, 64)        256       \n",
            " zation)                                                         \n",
            "                                                                 \n",
            " conv_dw_2_relu (ReLU)       (None, 24, 24, 64)        0         \n",
            "                                                                 \n",
            " conv_pw_2 (Conv2D)          (None, 24, 24, 128)       8192      \n",
            "                                                                 \n",
            " conv_pw_2_bn (BatchNormali  (None, 24, 24, 128)       512       \n",
            " zation)                                                         \n",
            "                                                                 \n",
            " conv_pw_2_relu (ReLU)       (None, 24, 24, 128)       0         \n",
            "                                                                 \n",
            " conv_dw_3 (DepthwiseConv2D  (None, 24, 24, 128)       1152      \n",
            " )                                                               \n",
            "                                                                 \n",
            " conv_dw_3_bn (BatchNormali  (None, 24, 24, 128)       512       \n",
            " zation)                                                         \n",
            "                                                                 \n",
            " conv_dw_3_relu (ReLU)       (None, 24, 24, 128)       0         \n",
            "                                                                 \n",
            " conv_pw_3 (Conv2D)          (None, 24, 24, 128)       16384     \n",
            "                                                                 \n",
            " conv_pw_3_bn (BatchNormali  (None, 24, 24, 128)       512       \n",
            " zation)                                                         \n",
            "                                                                 \n",
            " conv_pw_3_relu (ReLU)       (None, 24, 24, 128)       0         \n",
            "                                                                 \n",
            " conv_pad_4 (ZeroPadding2D)  (None, 25, 25, 128)       0         \n",
            "                                                                 \n",
            " conv_dw_4 (DepthwiseConv2D  (None, 12, 12, 128)       1152      \n",
            " )                                                               \n",
            "                                                                 \n",
            " conv_dw_4_bn (BatchNormali  (None, 12, 12, 128)       512       \n",
            " zation)                                                         \n",
            "                                                                 \n",
            " conv_dw_4_relu (ReLU)       (None, 12, 12, 128)       0         \n",
            "                                                                 \n",
            " conv_pw_4 (Conv2D)          (None, 12, 12, 256)       32768     \n",
            "                                                                 \n",
            " conv_pw_4_bn (BatchNormali  (None, 12, 12, 256)       1024      \n",
            " zation)                                                         \n",
            "                                                                 \n",
            " conv_pw_4_relu (ReLU)       (None, 12, 12, 256)       0         \n",
            "                                                                 \n",
            " conv_dw_5 (DepthwiseConv2D  (None, 12, 12, 256)       2304      \n",
            " )                                                               \n",
            "                                                                 \n",
            " conv_dw_5_bn (BatchNormali  (None, 12, 12, 256)       1024      \n",
            " zation)                                                         \n",
            "                                                                 \n",
            " conv_dw_5_relu (ReLU)       (None, 12, 12, 256)       0         \n",
            "                                                                 \n",
            " conv_pw_5 (Conv2D)          (None, 12, 12, 256)       65536     \n",
            "                                                                 \n",
            " conv_pw_5_bn (BatchNormali  (None, 12, 12, 256)       1024      \n",
            " zation)                                                         \n",
            "                                                                 \n",
            " conv_pw_5_relu (ReLU)       (None, 12, 12, 256)       0         \n",
            "                                                                 \n",
            " conv_pad_6 (ZeroPadding2D)  (None, 13, 13, 256)       0         \n",
            "                                                                 \n",
            " conv_dw_6 (DepthwiseConv2D  (None, 6, 6, 256)         2304      \n",
            " )                                                               \n",
            "                                                                 \n",
            " conv_dw_6_bn (BatchNormali  (None, 6, 6, 256)         1024      \n",
            " zation)                                                         \n",
            "                                                                 \n",
            " conv_dw_6_relu (ReLU)       (None, 6, 6, 256)         0         \n",
            "                                                                 \n",
            " conv_pw_6 (Conv2D)          (None, 6, 6, 512)         131072    \n",
            "                                                                 \n",
            " conv_pw_6_bn (BatchNormali  (None, 6, 6, 512)         2048      \n",
            " zation)                                                         \n",
            "                                                                 \n",
            " conv_pw_6_relu (ReLU)       (None, 6, 6, 512)         0         \n",
            "                                                                 \n",
            " conv_dw_7 (DepthwiseConv2D  (None, 6, 6, 512)         4608      \n",
            " )                                                               \n",
            "                                                                 \n",
            " conv_dw_7_bn (BatchNormali  (None, 6, 6, 512)         2048      \n",
            " zation)                                                         \n",
            "                                                                 \n",
            " conv_dw_7_relu (ReLU)       (None, 6, 6, 512)         0         \n",
            "                                                                 \n",
            " conv_pw_7 (Conv2D)          (None, 6, 6, 512)         262144    \n",
            "                                                                 \n",
            " conv_pw_7_bn (BatchNormali  (None, 6, 6, 512)         2048      \n",
            " zation)                                                         \n",
            "                                                                 \n",
            " conv_pw_7_relu (ReLU)       (None, 6, 6, 512)         0         \n",
            "                                                                 \n",
            " conv_dw_8 (DepthwiseConv2D  (None, 6, 6, 512)         4608      \n",
            " )                                                               \n",
            "                                                                 \n",
            " conv_dw_8_bn (BatchNormali  (None, 6, 6, 512)         2048      \n",
            " zation)                                                         \n",
            "                                                                 \n",
            " conv_dw_8_relu (ReLU)       (None, 6, 6, 512)         0         \n",
            "                                                                 \n",
            " conv_pw_8 (Conv2D)          (None, 6, 6, 512)         262144    \n",
            "                                                                 \n",
            " conv_pw_8_bn (BatchNormali  (None, 6, 6, 512)         2048      \n",
            " zation)                                                         \n",
            "                                                                 \n",
            " conv_pw_8_relu (ReLU)       (None, 6, 6, 512)         0         \n",
            "                                                                 \n",
            " conv_dw_9 (DepthwiseConv2D  (None, 6, 6, 512)         4608      \n",
            " )                                                               \n",
            "                                                                 \n",
            " conv_dw_9_bn (BatchNormali  (None, 6, 6, 512)         2048      \n",
            " zation)                                                         \n",
            "                                                                 \n",
            " conv_dw_9_relu (ReLU)       (None, 6, 6, 512)         0         \n",
            "                                                                 \n",
            " conv_pw_9 (Conv2D)          (None, 6, 6, 512)         262144    \n",
            "                                                                 \n",
            " conv_pw_9_bn (BatchNormali  (None, 6, 6, 512)         2048      \n",
            " zation)                                                         \n",
            "                                                                 \n",
            " conv_pw_9_relu (ReLU)       (None, 6, 6, 512)         0         \n",
            "                                                                 \n",
            " conv_dw_10 (DepthwiseConv2  (None, 6, 6, 512)         4608      \n",
            " D)                                                              \n",
            "                                                                 \n",
            " conv_dw_10_bn (BatchNormal  (None, 6, 6, 512)         2048      \n",
            " ization)                                                        \n",
            "                                                                 \n",
            " conv_dw_10_relu (ReLU)      (None, 6, 6, 512)         0         \n",
            "                                                                 \n",
            " conv_pw_10 (Conv2D)         (None, 6, 6, 512)         262144    \n",
            "                                                                 \n",
            " conv_pw_10_bn (BatchNormal  (None, 6, 6, 512)         2048      \n",
            " ization)                                                        \n",
            "                                                                 \n",
            " conv_pw_10_relu (ReLU)      (None, 6, 6, 512)         0         \n",
            "                                                                 \n",
            " conv_dw_11 (DepthwiseConv2  (None, 6, 6, 512)         4608      \n",
            " D)                                                              \n",
            "                                                                 \n",
            " conv_dw_11_bn (BatchNormal  (None, 6, 6, 512)         2048      \n",
            " ization)                                                        \n",
            "                                                                 \n",
            " conv_dw_11_relu (ReLU)      (None, 6, 6, 512)         0         \n",
            "                                                                 \n",
            " conv_pw_11 (Conv2D)         (None, 6, 6, 512)         262144    \n",
            "                                                                 \n",
            " conv_pw_11_bn (BatchNormal  (None, 6, 6, 512)         2048      \n",
            " ization)                                                        \n",
            "                                                                 \n",
            " conv_pw_11_relu (ReLU)      (None, 6, 6, 512)         0         \n",
            "                                                                 \n",
            " conv_pad_12 (ZeroPadding2D  (None, 7, 7, 512)         0         \n",
            " )                                                               \n",
            "                                                                 \n",
            " conv_dw_12 (DepthwiseConv2  (None, 3, 3, 512)         4608      \n",
            " D)                                                              \n",
            "                                                                 \n",
            " conv_dw_12_bn (BatchNormal  (None, 3, 3, 512)         2048      \n",
            " ization)                                                        \n",
            "                                                                 \n",
            " conv_dw_12_relu (ReLU)      (None, 3, 3, 512)         0         \n",
            "                                                                 \n",
            " conv_pw_12 (Conv2D)         (None, 3, 3, 1024)        524288    \n",
            "                                                                 \n",
            " conv_pw_12_bn (BatchNormal  (None, 3, 3, 1024)        4096      \n",
            " ization)                                                        \n",
            "                                                                 \n",
            " conv_pw_12_relu (ReLU)      (None, 3, 3, 1024)        0         \n",
            "                                                                 \n",
            " conv_dw_13 (DepthwiseConv2  (None, 3, 3, 1024)        9216      \n",
            " D)                                                              \n",
            "                                                                 \n",
            " conv_dw_13_bn (BatchNormal  (None, 3, 3, 1024)        4096      \n",
            " ization)                                                        \n",
            "                                                                 \n",
            " conv_dw_13_relu (ReLU)      (None, 3, 3, 1024)        0         \n",
            "                                                                 \n",
            " conv_pw_13 (Conv2D)         (None, 3, 3, 1024)        1048576   \n",
            "                                                                 \n",
            " conv_pw_13_bn (BatchNormal  (None, 3, 3, 1024)        4096      \n",
            " ization)                                                        \n",
            "                                                                 \n",
            " conv_pw_13_relu (ReLU)      (None, 3, 3, 1024)        0         \n",
            "                                                                 \n",
            "=================================================================\n",
            "Total params: 3228864 (12.32 MB)\n",
            "Trainable params: 0 (0.00 Byte)\n",
            "Non-trainable params: 3228864 (12.32 MB)\n",
            "_________________________________________________________________\n"
…
      "outputs": [
        {
          "output_type": "stream",
          "name": "stdout",
          "text": [
            "Model: \"model\"\n",
            "_________________________________________________________________\n",
            " Layer (type)                Output Shape              Param #   \n",
            "=================================================================\n",
            " input_2 (InputLayer)        [(None, 96, 96, 3)]       0         \n",
            "                                                                 \n",
            " sequential (Sequential)     (None, 96, 96, 3)         0         \n",
            "                                                                 \n",
            " tf.math.truediv (TFOpLambd  (None, 96, 96, 3)         0         \n",
            " a)                                                              \n",
            "                                                                 \n",
            " tf.math.subtract (TFOpLamb  (None, 96, 96, 3)         0         \n",
            " da)                                                             \n",
            "                                                                 \n",
            " mobilenet_1.00_224 (Functi  (None, 3, 3, 1024)        3228864   \n",
            " onal)                                                           \n",
            "                                                                 \n",
            " global_average_pooling2d (  (None, 1024)              0         \n",
            " GlobalAveragePooling2D)                                         \n",
            "                                                                 \n",
            " dropout (Dropout)           (None, 1024)              0         \n",
            "                                                                 \n",
            " dense (Dense)               (None, 1)                 1025      \n",
            "                                                                 \n",
            "=================================================================\n",
            "Total params: 3229889 (12.32 MB)\n",
            "Trainable params: 1025 (4.00 KB)\n",
            "Non-trainable params: 3228864 (12.32 MB)\n",
            "_________________________________________________________________\n"
…
